app/src/main/assets/nirajPorecha.tflite (tflite, 19416 bytes, 8 tensors)

sequential/dense/BiasAdd/ReadVariableOp f4 [16]
-0.10094179 0.09574319 -0.06860898 -0.40404344 -0.46327206 -0.080004774 -0.4660402 -0.16924642
-0.46440613 2.504321 0.49683097 1.9323046 0.8622997 -0.2359729 -0.14260568 -0.07544323
00000000: 92ba cebd 0115 c43d dd82 8cbd c8de cebe
00000010: ff31 edbe 8bd9 a3bd d29c eebe ef4e 2dbe
00000020: a4c6 edbe cc46 2040 a160 fe3e c255 f73f
00000030: acbf 5c3f e1a2 71be 3907 12be fb81 9abd

sequential/dense_1/BiasAdd/ReadVariableOp f4 [2]
-0.48815063 0.4881505
00000000: e1ee f9be ddee f93e

sequential/dense/MatMul f4 [16, 224]
0.048495762 -0.063241616 0.010215184 -0.12796491 -0.009086798 0.16617091 -0.17487842 -0.1704812
-0.15047191 -0.07552705 -0.16839223 0.011271528 -0.13045655 0.057433974 0.06558566 -0.09664927
0.0963444 0.110049225 0.06190888 0.084452465 0.05482582 0.15729159 -0.14807734 -0.05927105
-0.017224113 -0.14730126 0.034540422 -0.15957168 -0.006922583 0.0029675367 0.049754135 -0.09407677
0.067169026 0.01468426 0.06819155 -0.14632614 -0.11000971 -0.060813725 -0.062395383 -0.15325132
-0.11718241 -0.008693646 0.0027001884 -0.044249292 -0.22104241 0.08513229 0.0012676982 -0.14368951
0.103636675 0.027790152 -0.17803426 -0.078174174 -0.10517886 0.16598393 -0.15926751 0.03331884
-0.085342035 0.03625226 -0.04404951 -0.028052507 -0.05279361 0.1270356 0.021254385 -0.040109586
0.0010649973 0.074065894 -0.16805351 -0.06284041 -0.15960883 0.09642718 -0.08228487 -0.003304395
-0.06906849 0.035598382 -0.092149764 0.050114676 0.0763338 0.08614905 0.00024239364 -0.2374962
0.03306682 0.12756227 -0.17287919 -0.09792337 -0.24798112 0.07034976 -0.17302702 -0.17574248
-0.19801226 -0.11236893 0.122436754 -0.16654252 -0.2128866 -0.029019428 0.008948049 -0.09645625
-0.03465125 -0.011864672 -0.08561014 -0.08523738 0.027510306 0.11959786 -0.16325584 -0.042200226
0.096530914 0.060578514 -0.13641223 -0.023624957 -0.049471878 -0.081089355 0.02783036 -0.13003443
-0.09223248 -0.08179363 0.10958362 -0.16793168 -0.15281987 0.20257494 -0.08400618 -0.18803942
0.044582672 0.011859376 -0.15357016 0.0037417323 -0.18816869 0.070872106 -0.03193527 -0.19093248
-0.0060108765 -0.08835853 0.0013527193 -0.013715051 -0.07551278 0.12335697 -0.20721805 -0.13221009
0.05718042 -0.056212325 -0.18965584 0.06245565 -0.1389505 0.14447093 0.09619131 -0.1394851
0.031574458 -0.041368306 -0.06132295 -0.13632748 -0.1668814 0.023721749 0.06819195 -0.124708325
-0.12560502 0.072203256 -0.0019769052 -0.10980354 -0.18343806 0.042673606 -0.075655274 0.050071225
-0.01362479 -0.091665894 -0.19545314 0.078501195 0.035564356 -0.13659632 -0.054916844 -0.10443118
-0.16495153 -0.14030042 -0.12755257 -0.16506255 -0.03239245 0.12230063 -0.026968433 -0.04719578
0.012813265 0.06473371 -0.03495625 0.07817795 0.07079693 -0.09365418 0.034506302 0.07025243
0.08465229 0.0024823213 -0.101956256 0.02214416 -0.15920408 -0.0222156 0.032341573 -0.16567393
-0.026739422 -0.08244788 0.096865885 0.00039434925 -0.116544284 0.0779655 -0.14439175 0.015249666
-0.021346778 -0.0092622945 0.02137581 -0.13751201 -0.071868 -0.14739506 0.07139431 -0.13912588
-0.063421234 0.017330216 0.029663863 -0.05582509 -0.026307646 -0.076156445 -0.1205654 -0.19984712
-0.092830904 -0.17514291 -0.19502258 -0.016834635 -0.054342434 0.09180827 -0.093702294 -0.10717434
0.23464055 0.2343814 -0.24832007 -0.11389291 -0.084175065 -0.032636296 -0.17030805 -0.10168297
-0.17352214 0.44704992 -0.10384016 0.22224684 0.025453182 0.030619545 -0.09389833 -0.033908095
-0.024636647 -0.13751586 -0.14338994 -0.06758204 -0.16717952 0.028510133 -0.019503025 -0.23695982
-0.12216056 0.15905559 -0.08324428 -0.18093342 -0.032210812 0.08005898 -0.056688737 0.052663676
00000000: 7ea3 463d d284 81bd 965d 273c 3c09 03be
00000010: cbe0 14bc b528 2a3e 5413 33be a092 2ebe
00000020: 4f15 1abe edad 9abd 036f 2cbe 37ac 383c
00000030: 6796 05be e33f 6b3d c651 863d 0df0 c5bd
00000040: 3650 c53d 7d61 e13d 2a94 7d3d 6af5 ac3d
00000050: 0a91 603d 0c11 213e 96a1 17be 33c6 72bd
00000060: 9519 8dbc 24d6 16be 427a 0d3d c266 23be
00000070: d6d6 e2bb 017b 423b feca 4b3d 52ab c0bd
00000080: ea8f 893d 4096 703c 03a8 8b3d 85d6 15be
00000090: c54c e1bd d017 79bd 4d92 7fbd eaed 1cbe
000000a0: 55fd efbd cb6f 0ebc a5f5 303b bf3e 35bd
000000b0: f158 62be d759 ae3d e528 a63a 5823 13be
000000c0: 773f d43d 2ca8 e33c 9d4e 36be c819 a0bd
000000d0: 0468 d7bd b1f7 293e 0617 23be 5679 083d
000000e0: cec7 aebd 407d 143d 426d 34bd 5fce e5bc
000000f0: 1d3e 58bd 9f15 023e ad1d ae3c f349 24bd
00000100: 6197 8b3a dcaf 973d 3816 2cbe 79b2 80bd
00000110: 7f70 23be 9d7b c53d f884 a8bd 8c8e 58bb
00000120: c873 8dbd 9ccf 113d 04b9 bcbd 0c45 4d3d
00000130: e554 9c3d ea6e b03d 0c2b 7e39 3432 73be
00000140: 1371 073d af9f 023e 3e07 31be 0c8c c8bd
00000150: c3ee 7dbe 8913 903d ff2d 31be d6f5 33be
00000160: bac3 4abe ae21 e6bd 1fc0 fa3d 1f8a 2abe
00000170: f2fe 59be 27ba edbc d69a 123c db8a c5bd
00000180: 78ee 0dbd 0b64 42bc 5e54 afbd ef90 aebd
00000190: 4b5d e13c b9ef f43d 8a2c 27be 25da 2cbd
000001a0: 00b2 c53d 2d21 783d a6af 0bbe 2089 c1bc
000001b0: 06a3 4abd 2d12 a6bd 7ffc e33c bf27 05be
000001c0: 62e4 bcbd 6b83 a7bd 616d e03d 48f6 2bbe
000001d0: d07c 1cbe ce6f 4f3e 6f0b acbd 688d 40be
000001e0: 529c 363d d44d 423c 7f41 1dbe da37 753b
000001f0: 4baf 40be 6525 913d 8fce 02bd ce83 43be
00000200: e3f6 c4bb 51f5 b4bd ba4d b13a 18b5 60bc
00000210: 72a6 9abd 94a2 fc3d f830 54be 1562 07be
00000220: 0436 6a3d e53e 66bd 2435 42be 7fd1 7f3d
00000230: 0a49 0ebe 30f0 133e f3ff c43d 2fd5 0ebe
00000240: 3854 013d d071 29bd c62d 7bbd 6e99 0bbe
00000250: f5e2 2abe 1d54 c23c 39a8 8b3d 1467 ffbd
00000260: 9a9e 00be 4ddf 933d f78e 01bb aee0 e0bd
00000270: 30d7 3bbe 85ca 2e3d 27f1 9abd 7c17 4d3d
00000280: 833a 5fbc 54bb bbbd de24 48be 3cc5 a03d
00000290: eeab 113d e8df 0bbe 7cf0 60bd 04e0 d5bd
000002a0: 0ee9 28be eaaa 0fbe 249d 02be 2806 29be
000002b0: f2ad 04bd c178 fa3d e7ec dcbc 5d50 41bd
000002c0: bbee 513c 1b93 843d 492e 0fbd c31b a03d
000002d0: fbfd 903d c3cd bfbd 7b56 0d3d 82e0 8f3d
000002e0: 2e5e ad3d 71ae 223b 71ce d0bd ab67 b53c
000002f0: 6506 23be 7dfd b5bc 9978 043d 6da6 29be
00000300: a20c dbbc 6fda a8bd 9f61 c63d a9c0 ce39
00000310: c5ae eebd 60ac 9f3d 6edb 13be bcd9 793c
00000320: 70df aebc e1c0 17bc 531c af3c f3cf 0cbe
00000330: 882f 93bd bbee 16be 2e37 923d 0477 0ebe
00000340: fee2 81bd 19f8 8d3c a101 f33c d9a8 64bd
00000350: 2283 d7bc e9f7 9bbd feea f6bd b9a4 4cbe
00000360: 211e bebd aa58 33be 00b4 47be cae8 89bc
00000370: 2c96 5ebd f905 bc3d fde6 bfbd 387e dbbd
00000380: 9d45 703e ad01 703e 9e47 7ebe b040 e9bd
00000390: fa63 acbd a3ad 05bd 3c65 2ebe 293f d0bd
000003a0: caaf 31be bae3 e43e 26aa d4bd ad94 633e
000003b0: 3183 d03c d7d5 fa3c c54d c0bd 37e3 0abd
000003c0: cbd2 c9bc f5d0 0cbe d0d4 12be 7468 8abd
000003d0: 1c31 2bbe 158e e93c cfc4 9fbc 98a5 72be
000003e0: 512f fabd 78df 223e fa7b aabd 9c46 39be
000003f0: 7cef 03bd f6f5 a33d 7332 68bd deb5 573d

sequential/dense_1/MatMul f4 [2, 16]
0.11262295 0.29859084 -0.13981946 -0.1021801 0.30504182 -0.31491643 -0.00937684 0.13619418
0.09237279 -0.4647736 0.17820886 -0.09524273 0.19817236 0.029001556 0.16933984 -0.29327703
0.4254217 0.31591013 0.15807188 -0.15304103 0.27211154 -0.03874724 -0.018148892 -0.18382625
0.06392738 -0.3901684 0.21941444 -0.024685381 0.22342218 -0.025190225 0.21542381 0.25167382
00000000: dca6 e63d e6e0 983e d52c 0fbe cd43 d1bd
00000010: 712e 9c3e ba3c a1be 51a1 19bc 7d76 0b3e
00000020: f22d bd3d cef6 edbe 627c 363e 9f0e c3bd
00000030: b2ed 4a3e ac94 ed3c 6c67 2d3e 6828 96be
00000040: e0d0 d93e f9be a13e 98dd 213e cab6 1cbe
00000050: 3452 8b3e 6db5 1ebd fcac 94bc f33c 3cbe
00000060: 5cec 823d 27c4 c7be 2eae 603e ff38 cabc
00000070: c9c8 643e bb5b cebc 0f98 5c3e 64db 803e

sequential/conv2d/Conv2D f4 [8, 4, 3, 1]
-0.12664448 -0.026967663 -0.34220096 0.17344548 0.026196247 0.03398908 -0.10054977 -0.07708803
0.19561313 -0.099296376 -0.05623615 0.3401023 -0.08197349 -0.158719 0.35156554 -0.12080937
-0.16036038 0.14422126 0.057150286 0.00662116 0.016145619 0.060406704 0.22113198 -0.53667766
-0.042536963 -0.0013000047 0.18080157 -0.04519377 0.04089687 0.1250843 0.10574534 -0.110593356
0.08583962 -0.082492165 -0.019800516 0.052971043 0.113030605 -0.24854733 0.22839686 0.1490645
-0.059587978 -0.03215123 0.051260617 -0.11831921 0.019317893 -0.07564331 -0.28096122 -0.28948385
0.12433277 0.07077884 -0.010981019 -0.050027087 0.024643658 0.13318303 0.06419333 0.13120322
0.0336597 -0.20423359 0.14494592 -0.014409183 0.16538732 -0.05644086 -0.30764684 0.26730317
-0.17690267 -0.4294452 0.06407167 -0.0058549666 -0.47303602 0.25813597 -0.17748006 -0.67319775
0.2632973 0.048395265 -0.01105514 0.072098106 0.012480441 0.10790865 -0.25253615 -0.010518407
0.076251246 -0.07992015 0.09421737 -0.12577078 -0.11278141 -0.15574759 -0.20824268 -0.1402535
-0.29172722 -0.33722368 0.5225894 -0.15643615 -0.30176798 0.17397146 0.05598026 -0.022265885
00000000: 17af 01be 4aeb dcbc f734 afbe b19b 313e
00000010: 8399 d63c 2238 0b3d 0aed cdbd 54e0 9dbd
00000020: cf4e 483e e65b cbbd e157 66bd e321 ae3e
00000030: b8e1 a7bd 3c87 22be 6600 b43e e76a f7bd
00000040: 8335 24be bdae 133e 6b16 6a3d 51f6 d83b
00000050: d143 843c 056d 773d 6c70 623e b563 09bf
00000060: 3d3b 2ebd eb64 aaba 0c24 393e 1a1d 39bd
00000070: 7a83 273d 1916 003e 0391 d83d c57e e2bd
00000080: afcc af3d a7f1 a8bd b134 a2bc 2af8 583d
00000090: 977c e73d 3183 7ebe dee0 693e 5da4 183e
000000a0: 8612 74bd 02b1 03bd a7f6 513d 5851 f2bd
000000b0: 8f40 9e3c e1ea 9abd 26da 8fbe 3a37 94be
000000c0: 2ea2 fe3d 7ff4 903d bbe9 33bc 34e9 4cbd
000000d0: 7fe1 c93c 2261 083e cb77 833d 235a 063e
000000e0: c1de 093d 9c22 51be b46c 143e 7e14 6cbc
000000f0: 4b5b 293e 882e 67bd e383 9dbe f6db 883e
00000100: f925 35be 3ee0 dbbe 0238 833d 05db bfbb
00000110: c731 f2be 662a 843e 55bd 35be b056 2cbf
00000120: e7ce 863e 1d3a 463d 9e20 35bc 2ca8 933d
00000130: c37a 4c3c 36ff dc3d 6b4c 81be 6655 2cbc
00000140: 9d29 9c3d 2dad a3bd 09f5 c03d 0eca 00be
00000150: f1f9 e6bd 4c7c 1fbe 923d 55be 9d9e 0fbe
00000160: 455d 95be 95a8 acbe 6bc8 053f cc30 20be
00000170: 5581 9abe 9325 323e 8f4b 653d f266 b6bc

sequential/conv2d_1/Conv2D f4 [16, 4, 1, 8]
-0.17597397 -0.1712007 -0.0804541 -0.18492416 -0.14630608 -0.23664185 -0.01877247 -0.08043124
0.0050010295 0.15412241 0.041502465 -0.14756767 0.04590368 0.33631375 0.12297967 0.022278063
0.1761809 0.14081539 -0.0148689225 -0.16590689 -0.13194987 0.25419658 0.09370191 0.16006978
0.1914798 0.20845367 -0.1310617 -0.15504171 -0.1915884 0.19082217 -0.13655885 -0.073066406
0.03188349 0.23313132 0.57096064 0.15938042 0.16001227 -0.0069976537 0.13475803 -0.28336158
-0.20704229 0.42737788 0.1422366 0.03327827 -0.07193327 -0.109965 0.041176833 -0.3352054
-0.3068474 0.10481137 -0.18844783 -0.10693196 -0.30670983 -0.07338842 -0.29044512 -0.12746221
-0.2375658 -0.19323702 -0.38253042 -0.08533765 -0.35313305 -0.085315965 -0.3510327 0.13919769
-0.41827297 0.09879518 -0.4444353 -0.21575196 -0.5530494 -0.078232124 -0.65376925 -0.08708949
0.067502506 0.30686632 -0.22753158 -0.5004756 -0.023482386 -0.15951443 -0.1137554 0.42528886
0.28295 -0.12283042 0.18662728 -0.32873955 0.2116763 -0.23328921 -0.013154758 -0.23633201
0.40773052 0.23660997 0.0738856 -0.012106426 0.30345136 0.025952682 0.123616956 -0.090271585
-0.41294724 0.7961584 0.38697436 -0.057122864 0.23835883 -0.14801188 0.27684763 -0.37737584
-0.24204166 0.22349474 -0.09210733 0.09549283 -0.32808954 -0.09729986 -0.19659907 -0.09771219
-0.11151973 0.0499063 -0.21356082 -0.031709 -0.17156665 -0.22435313 -0.12878469 -0.0057332297
0.044700745 -0.3810639 -0.13310802 0.05174911 -0.2257417 -0.16499083 -0.07460338 -0.2336875
-0.06577412 0.27269262 0.21258956 -0.028131 -0.028929682 0.021332204 0.022877233 -0.25552467
-0.03552028 0.19776957 0.15253276 -0.02460781 -0.0441177 0.46858266 0.09491585 0.0010063263
0.19714852 -0.023931023 -0.1292855 -0.12460035 0.12899539 -0.31137317 -0.10714746 -0.029424397
0.043469947 0.11408015 -0.03816351 -0.068453625 0.17216273 0.034165822 0.019607171 -0.56219065
-0.14322685 -0.11391143 -0.058013692 0.17616944 0.0022172027 0.08779338 -0.08116157 -0.122218326
-0.22729297 0.03834201 0.025220584 0.13898008 -0.03267128 0.19954889 0.30314335 0.13035256
-0.15486099 -0.047880575 -0.20805895 -0.16728863 -0.026935427 -0.2371733 0.04755049 -0.1826841
-0.33384618 -0.10292017 0.0680379 0.11448635 -0.26492807 0.062244106 -0.05600092 0.030736135
-0.085766986 0.18041465 0.03279633 -0.070490986 -0.07371726 -0.36843595 -0.117387734 -0.65122604
-0.097661845 -0.15067115 -0.084555045 0.03958605 0.029639164 -1.0726944 0.1508176 -0.49470168
0.21598567 -0.025892667 0.16774932 0.11387162 0.19945155 -0.98321617 -0.09642943 -0.85500354
0.0056887 0.4190674 0.081837915 0.029289639 -0.10151201 0.10884888 0.15851115 -0.32594046
-0.25469536 0.19234182 0.0843238 0.2036542 0.042058103 -0.5562341 0.16008262 -0.9661424
-0.3103249 0.13416006 -0.20698467 0.2918319 -0.2469383 -0.3287706 -0.26800615 -0.27395317
0.09140345 0.25176272 -0.23784779 -0.22765696 -0.08548276 -0.17052558 -0.13988075 0.13727528
0.21246672 0.20576878 0.18402523 -0.41775158 0.17591631 -0.04349182 0.19809833 -0.20158395
00000000: 8532 34be 3c4f 2fbe 1fc5 a4bd c25c 3dbe
00000010: 43d1 15be 3e52 72be b9c8 99bc 22b9 a4bd
00000020: addf a33b 44d2 1d3e 7dfe 293d fb1b 17be
00000030: 7f05 3c3d 5131 ac3e c4dc fb3d 7c80 b63c
00000040: c468 343e e931 103e c89c 73bc 7fe3 29be
00000050: de1d 07be 0e26 823e c9e6 bf3d 55e9 233e
00000060: 4813 443e e174 553e 0a35 06be 41c3 1ebe
00000070: c02f 44be e366 433e 15d6 0bbe d7a3 95bd
00000080: 4398 023d fab9 6e3e 7a2a 123f 9f34 233e
00000090: 42da 233e 934c e5bb 02fe 093e c514 91be
000000a0: e502 54be 46d1 da3e 79a6 113e cc4e 083d
000000b0: c051 93bd 5435 e1bd 0aa9 283d 0ba0 abbe
000000c0: 1a1b 9dbe 58a7 d63d 78f8 40be 25ff dabd
000000d0: 1209 9dbe ab4c 96bd 39b5 94be 7485 02be
000000e0: 7344 73be eddf 45be 07db c3be 81c5 aebd
000000f0: dbcd b4be 23ba aebd 8fba b3be d789 0e3e
00000100: e027 d6be 2155 ca3d 068d e3be 15ee 5cbe
00000110: a594 0dbf 2a38 a0bd 6c5d 27bf f95b b2bd
00000120: c13e 8a3d 951d 9d3e 0afe 68be 2b1f 00bf
00000130: 225e c0bc c057 23be 97f8 e8bd 76bf d93e
00000140: d3de 903e 848e fbbd 391b 3f3e 8d50 a8be
00000150: acc1 583e 5ee3 6ebe 0e87 57bc 0501 72be
00000160: 0ec2 d03e e249 723e 5551 973d 085a 46bc
00000170: fa5d 9b3e b89a d43c e32a fd3d 4fe0 b8bd
00000180: d26d d3be 09d1 4b3f 8121 c63e aaf9 69bd
00000190: 5614 743e 6d90 17be f9be 8d3e 6837 c1be
000001a0: c5d9 77be cedb 643e c5a2 bcbd bf91 c33d
000001b0: 5afb a7be 2645 c7bd 4451 49be 541d c8bd
000001c0: 7564 e4bd 8c6a 4c3d b0af 5abe 4ce1 01bd
000001d0: 2baf 2fbe d4bc 65be 22e0 03be d1dd bbbb
000001e0: 2118 373d cf1a c3be 784d 08be e0f6 533d
000001f0: d528 67be 5bf3 28be a8c9 98bd c74b 6fbe
00000200: 95b4 86bd 5e9e 8b3e 14b1 593e fc72 e6bc
00000210: f1fd ecbc e0c0 ae3c 0969 bb3c 21d4 82be
00000220: b77d 11bd 1b84 4a3e 8c31 1c3e 5196 c9bc
00000230: c3b4 34bd 11ea ef3e 3e63 c23d b5e6 833a
00000240: 4de1 493e fe0a c4bc 6b63 04be 782e ffbd
00000250: 5e17 043e 4e6c 9fbe 2170 dbbd 6f0b f1bc
00000260: 8b0d 323d dba2 e93d 5751 1cbd 6a31 8cbd
00000270: 6d4b 303e 76f1 0b3d 389f a03c baeb 0fbf
00000280: 0faa 12be 654a e9bd c49f 6dbd c365 343e
00000290: 7d4e 113b 04cd b33d 0a38 a6bd 9a4d fabd
000002a0: 7dbf 68be 830c 1d3d 669b ce3c cb50 0e3e
000002b0: 52d2 05bd 8b56 4c3e 9b35 9b3e 247b 053e
000002c0: e193 1ebe 6c1e 44bd 680d 55be b64d 2bbe
000002d0: afa7 dcbc 8fdd 72be 4dc4 423d 8a11 3bbe
000002e0: e3ed aabe cfc7 d2bd 7457 8b3d d277 ea3d
000002f0: a7a4 87be adf3 7e3d 3861 65bd 59ca fb3c
00000300: 9aa6 afbd 9ebe 383e 7255 063d 945d 90bd
00000310: 13f9 96bd a3a3 bcbe fb68 f0bd c0b6 26bf
00000320: ef02 c8bd 8a49 1abe 322b adbd fb24 223d
00000330: d5cd f23c 0d4e 89bf ee6f 1a3e 8a49 fdbe
00000340: 592b 5d3e dc1c d4bc 7ac6 2b3e 8635 e93d
00000350: 073d 4c3e 0eb4 7bbf cb7c c5bd 83e1 5abf
00000360: 4668 ba3b 0190 d63e a39a a73d d3f0 ef3c
00000370: 87e5 cfbd 29ec de3d bf50 223e abe1 a6be
00000380: 6e67 82be 41f5 443e f5b1 ac3d ba8a 503e
00000390: 1e45 2c3d 5c65 0ebf b3ec 233e 1c55 77bf
000003a0: e8e2 9ebe 4161 093e caf3 53be fe6a 953e
000003b0: 65dd 7cbe 9f54 a8be 1a38 89be 9743 8cbe
000003c0: bb31 bb3d 0be7 803e 5f8e 73be e81e 69be
000003d0: 9611 afbd 429e 2ebe e63c 0fbe e491 0c3e
000003e0: e090 593e 0db5 523e 1c71 3c3e 89e3 d5be
000003f0: 6823 343e 7b24 32bd 4ada 4a3e 066c 4ebe

std.constant f4 [8]
-1.9273907 -1.9275763 -2.3686137 -1.5118475 -1.7515887 0.6997015 -0.7721774 -0.1735853
00000000: bdb4 f6bf d2ba f6bf 5e97 17c0 3884 c1bf
00000010: 0f34 e0bf a31f 333f 6bad 45bf 58c0 31be

std.constant1 f4 [16]
0.89537597 -0.45055264 -1.0221055 -0.7431942 0.3099214 0.64172673 0.14286427 -0.50252354
0.7859306 -0.18658757 -0.0050615347 -0.7086174 -0.12336093 -0.43400913 -0.63719857 0.97763485
00000000: 5c37 653f d6ae e6be 5ad4 82bf fa41 3ebf
00000010: 05ae 9e3e 3448 243f 034b 123e 62a5 00bf
00000020: bf32 493f d010 3fbe 3bdb a5bb f367 35bf
00000030: a8a4 fcbd 7236 debe 721f 23bf 4746 7a3f
